models/Deep Learning Models/lstm-constraints.pt (torch, 504568 bytes, 10 tensors)

embedding.weight f4 [25000, 5]
0	0x4012d74d	2.294391
1	0x3ffb116b	1.961469
2	0x3fab8831	1.3400937
3	0x40069c7e	2.1033015
4	0x3e7b3bcf	0.24534534
5	0x00000000	0.0
6	0x00000000	0.0
7	0x00000000	0.0
8	0x00000000	0.0
9	0x00000000	0.0
10	0xbda370c7	-0.07980495
11	0x3f4231d0	0.7585726
12	0x3f755c99	0.9584442
13	0x3e0beea3	0.13665251
14	0x3f28bb94	0.6591122
15	0x3ea0eb65	0.31429592
16	0xbfb08f90	-1.3793812
17	0xbfba0f7b	-1.4535974
18	0x3f92d215	1.1470362
19	0x3fb35380	1.4009857
20	0x3d67e356	0.05661329
21	0xbf595974	-0.8490212
22	0xbf1bdee8	-0.60887
23	0x3e3b3495	0.18281777
24	0x3f12b90b	0.57313603
25	0x3fbcccd0	1.4750004
26	0xbf10362d	-0.56332666
27	0xbebab1fa	-0.3646391
28	0x3f0ec2ab	0.5576579
29	0x3e6ea2b0	0.23304248
30	0x40241748	2.563921
31	0xbf0f0206	-0.5586246
32	0xbfd2672e	-1.6437738
33	0x3eda09df	0.42585656
34	0x400827da	2.1274323
35	0xbf04c7ba	-0.5186726
36	0xbf43c985	-0.7647937
37	0xbd1ad7c4	-0.037803426
38	0x3eb596be	0.3546657
39	0x3eabbe48	0.3354361
40	0x3e8f2f81	0.2796593
41	0xbf8dfd13	-1.1092857
42	0xbe38fde1	-0.18065597
43	0x3eb60925	0.35553852
44	0x3f11afa1	0.56908613
45	0x3f602a86	0.87564886
46	0x3ee2fdc9	0.44334248
47	0x3fbcb46b	1.4742559
48	0xc00b9d7e	-2.1814876
49	0xc02848a5	-2.6294339
50	0xc00cb5fd	-2.1986077
51	0xbee64ede	-0.44982046
52	0x3f869fa6	1.0517471
53	0xbf38bd29	-0.72163635
54	0xbd916098	-0.07098502
55	0x3e20ed63	0.15715556
56	0x3ee72ac6	0.4514982
57	0x3bda8743	0.0066689565
58	0x3f49fab0	0.78898144
59	0xbf79b2dc	-0.9753854
60	0xbbd90726	-0.0066231666
61	0xbf33a69a	-0.7017609
62	0xbfbad823	-1.459721
63	0x3f66a24d	0.900914
64	0x3f59f185	0.85134155
65	0xbf5cf0bb	-0.86304826
66	0xbf814a2e	-1.0100763
67	0x4004b42d	2.073497
68	0xbf49ee33	-0.7887909
69	0x3f26c4bc	0.6514394
70	0xbe432496	-0.19056925
71	0xbfb18627	-1.3869065
72	0xbb6ba9fa	-0.0035959468
73	0x3f162e30	0.58664227
74	0x3f2361f2	0.6382133
75	0xc013e1ba	-2.3106523
76	0x3fb440ca	1.4082272
77	0xbf104020	-0.56347847
78	0x3fb1a551	1.3878576
79	0xbedaba93	-0.4272047
80	0xbebab009	-0.3646243
81	0xbf70a2e4	-0.9399855
82	0x3dd2443e	0.102669224
83	0xbf8fd635	-1.1237246
84	0x40267c7f	2.6013486
85	0x3fc51997	1.5398434
86	0x3f7af088	0.9802327
87	0x3fc26e9e	1.5190008
88	0x3ed9a81a	0.42511064
89	0x3f609459	0.8772636
90	0xc0496381	-3.1466982
91	0xbe21a228	-0.15784514
92	0x3e8017a1	0.25018027
93	0xbfc3e1fe	-1.5303342
94	0x3f94b756	1.161845
95	0x3edf4cbb	0.43613228
96	0xbea444ee	-0.3208384
97	0x3efe0e65	0.49620357
98	0x3fc7c41b	1.5606722
99	0x3f73ce37	0.95236534
100	0xbe4e6967	-0.20157395
101	0xbfd9693a	-1.6985238
102	0x3f6da27c	0.92826056
103	0xbf22a881	-0.63538367
104	0x3f42569f	0.75913423
105	0x3ff3953a	1.9029915
106	0xbf321fc4	-0.6957972
107	0xbfbede48	-1.4911585
108	0xbf079f66	-0.529776
109	0xbeb47231	-0.3524337
110	0xbed4b4b3	-0.41544113
111	0xbef44753	-0.47710666
112	0xbf8c88eb	-1.0979284
113	0xbf7085e0	-0.9395428
114	0xbeaaae7f	-0.33336255
115	0xbeba89b0	-0.36433172
116	0x40061ebc	2.0956259
117	0x3ea9db07	0.33174917
118	0x3f8f3128	1.1186876
119	0xbf87bc02	-1.060425
120	0xbf3cc4d6	-0.7373785
121	0xbdcc69d8	-0.099811256
122	0xbe5f7f36	-0.21825871
123	0x3f02bb7e	0.5106734
124	0xbf60c131	-0.87794787
125	0x3fc309cb	1.5237364
126	0xbf9245c4	-1.1427541
127	0x3f9d5122	1.2290385
128	0x3f6b74ca	0.9197508
129	0xbfdee836	-1.7414615
130	0x3fadbc9b	1.3573183
131	0x3fa791a0	1.3091316
132	0x3fabf1bc	1.3433146
133	0x3fe31ef6	1.7743824
134	0xba9adf89	-0.0011815886
135	0x3f4f4e09	0.8097845
136	0x3e469a77	0.19394861
137	0xbf28af2e	-0.65892303
138	0x3f8715b7	1.0553502
139	0xbf84a3d6	-1.0362499
140	0x3e3944aa	0.180926
141	0xbfff7807	-1.9958504
142	0x3e9d9add	0.30782214
143	0xbc315fba	-0.010826046
144	0x3fd63162	1.673382
145	0xbd0c562d	-0.03426187
146	0xbfaa38bd	-1.3298565
147	0x3ef0a5c6	0.47001475
148	0xbe958dad	-0.29209653
149	0xbef7fc23	-0.48434553
150	0xbeeb418d	-0.4594845
151	0xbf4cfc9e	-0.80072963
152	0x3f2d1e78	0.67624617
153	0xbfaa6295	-1.3311335
154	0x3fa05ce7	1.2528352
155	0xbf0fe2b1	-0.5620528
156	0x3f8097b1	1.0046293
157	0xbe3ae678	-0.1825198
158	0xbf85e4a2	-1.0460398
159	0xbee454c6	-0.44595927
160	0x3b6a3ab2	0.0035740552
161	0xbf199ed4	-0.6000798
162	0x3fc060a9	1.5029498
163	0x3f9f7172	1.2456496
164	0xbf1087aa	-0.56457007
165	0xbf197c4a	-0.59955275
166	0x3e6d41f6	0.23169693
167	0x3f0193d9	0.5061622
168	0xbeaefe48	-0.34178376
169	0xbfb3cb37	-1.4046391
170	0x400fd756	2.247518
171	0x3e2e0546	0.16994199
172	0x3fc591b0	1.5435085
173	0x401e8f69	2.477503
174	0x3eebdebd	0.46068373
175	0x3ea791c0	0.32728386
176	0x3f837c1a	1.0272248
177	0x3f12f1f2	0.5740043
178	0x4072b445	3.7922528
179	0xbd21aea9	-0.03947321
180	0xbfacb2f1	-1.3492109
181	0xbe5b20e0	-0.2139926
182	0xbddad8c9	-0.1068588
183	0x3f606d34	0.8766663
184	0xbe101650	-0.14071012
185	0xbfe36d74	-1.7767777
186	0xbf125afb	-0.57170075
187	0x3f858cc1	1.043358
188	0x3ec2eb81	0.380703
189	0x3f181458	0.5940604
190	0xbf856605	-1.0421759
191	0xbf27f93b	-0.6561467
192	0xbe698c47	-0.22807418
193	0x3e374495	0.17897256
194	0xbfdb2b96	-1.7122676
195	0x3f6e9fd3	0.9321262
196	0x3f86db7f	1.0535735
197	0x3fd61993	1.6726555
198	0x3fdaa8a8	1.708272
199	0x3b77249b	0.0037711028
200	0xbf7e41aa	-0.99318945
201	0xbfc11cf5	-1.5086962
202	0x3f10d9e4	0.56582475
203	0xbfe353d6	-1.775996
204	0x3f36986c	0.7132633
205	0x3fe6eb90	1.8040638
206	0x3f7b1065	0.9807189
207	0x3ea4613f	0.32105443
208	0x3ff420de	1.907253
209	0xbf800072	-1.0000136
210	0xbfea8c0d	-1.832399
211	0x3f47c75c	0.78038573
212	0x3e90d63f	0.28288457
213	0xbeb3e909	-0.3513873
214	0x3f8fdbb6	1.1238925
215	0xbe26720d	-0.16254444
216	0x3f271c82	0.65277874
217	0xbedf90c6	-0.4366514
218	0xbe898489	-0.2685893
219	0x3f398438	0.72467375
220	0x3eca3a19	0.3949745
221	0xbfa37870	-1.277113
222	0xbf748b50	-0.95525074
223	0x3f4a46bc	0.7901418
224	0x3f2a70b1	0.66578203
225	0x3fae4803	1.3615726
226	0xba36f0e6	-0.00069786457
227	0x3ff295f4	1.8952012
228	0x3f12c2fc	0.5732877
229	0xbefce3e6	-0.49392623
230	0x3ee1d6bf	0.4410915
231	0xbfaabacb	-1.3338255
232	0xbf6ce902	-0.9254304
233	0x3de3c1aa	0.11120923
234	0xbed05b7c	-0.40694797
235	0xbeb94c66	-0.361911
236	0x3f2e11dd	0.6799601
237	0x3f85c146	1.0449607
238	0xbe835759	-0.25652578
239	0xbf8a5423	-1.0806926
240	0xbf91c360	-1.1387749
241	0xbfcc8cdb	-1.5980486
242	0xbfc8bbef	-1.5682353
243	0xbf6f04c1	-0.9336663
244	0xbf85c76d	-1.0451485
245	0x3f013a4e	0.5047959
246	0xc003af9e	-2.0575938
247	0x3f8b5bed	1.0887429
248	0x3d957dc1	0.07299376
249	0xbedc8282	-0.4306832
250	0x3f9724d1	1.180811
251	0xbf98db76	-1.1941974
252	0x3f5d0876	0.86341035
253	0x3f384e00	0.7199402
254	0xbfda0cd8	-1.703517
255	0xbf36690d	-0.71254045

lstm.weight_ih_l0 f4 [20, 5]
0	0x3f9d6b30	1.2298336
1	0x3da6c3d1	0.08142818
2	0xbe0e0980	-0.13870811
3	0x3f8aaa8e	1.0833299
4	0x3eaa04df	0.3320684
5	0xbf20130a	-0.6252905
6	0xbeafdd96	-0.34348744
7	0xbda3d91e	-0.08000396
8	0xbe413a45	-0.18869884
9	0xbe455339	-0.19270028
10	0xbe88a188	-0.2668574
11	0xbed74507	-0.4204485
12	0xbf04557b	-0.5169293
13	0xbed39cf8	-0.41330695
14	0x3e953f58	0.2914989
15	0xbf588d24	-0.84590364
16	0xbf8ae8a8	-1.0852251
17	0xbe90b47b	-0.28262696
18	0xbf8e77ca	-1.1130307
19	0xbb5ea35b	-0.003397188
20	0xbec1602f	-0.37768695
21	0x3e3fa087	0.1871358
22	0xbe40cc45	-0.18827923
23	0x3ecf10e6	0.4044258
24	0xbe2f6ef4	-0.17132169
25	0xbd320493	-0.043461394
26	0xbd01a9bb	-0.03165601
27	0x3e8301da	0.2558735
28	0x3e81b11f	0.25330445
29	0x3eab73fe	0.33486933
30	0x3e2f6553	0.17128496
31	0x3f395240	0.7239113
32	0x3e43a822	0.19107106
33	0x3e2d8f2d	0.16949148
34	0xbea4121f	-0.32045075
35	0x3b8b6026	0.004253405
36	0x3e846355	0.25857034
37	0xbe47540e	-0.19465658
38	0x3eb3e3e1	0.35134795
39	0xbf1f51db	-0.62234277
40	0x3df69f15	0.12042061
41	0x3da2da0a	0.07951744
42	0x3e1ca8e1	0.15298797
43	0x3ebd66ce	0.36992496
44	0xbde4bdf6	-0.11169045
45	0x3d5232a5	0.05131783
46	0x3e0e2eed	0.13885088
47	0x3e22086f	0.1582353
48	0xbd1c9220	-0.038225293
49	0xbe9e12cf	-0.30873725
50	0xbcd3ddd7	-0.025862617
51	0xbf8a1d4e	-1.0790193
52	0xbf85ffbe	-1.0468671
53	0xbf015df8	-0.5053401
54	0x3f51b293	0.8191311
55	0xbe42a844	-0.190095
56	0xbeafc4c8	-0.3432982
57	0x3c8bd421	0.017068924
58	0xbe09ce7f	-0.13457678
59	0x3f3e7234	0.7439301
60	0x3ebceb28	0.3689816
61	0xbeae30ef	-0.34021708
62	0x3e6f436f	0.23365568
63	0xbe7f76fd	-0.24947734
64	0x3ed0a1d7	0.40748474
65	0xbec5f01e	-0.38659757
66	0xbf0c90f7	-0.549087
67	0xbd6b73db	-0.057483535
68	0xbef8d0c9	-0.4859679
69	0x3e2740ee	0.16333362
70	0x3ec4c1ad	0.38429013
71	0xbe230c10	-0.1592257
72	0x3d21b245	0.03947665
73	0x3dc39b89	0.0955115
74	0x3ef5d5cf	0.48014686
75	0x3eaab37c	0.3334006
76	0xbb1a0bc1	-0.002350554
77	0x3ead4e38	0.3384874
78	0x3d7e78be	0.062126867
79	0x3f3037f5	0.68835384
80	0xbe66f853	-0.22555666
81	0x3e76fe95	0.24120553
82	0x3e928bdf	0.28622338
83	0xbda9829f	-0.08276867
84	0xbc68f517	-0.01421859
85	0xbcf5a16d	-0.0299842
86	0xbd3ef719	-0.04662237
87	0xbec9058d	-0.39262047
88	0x3e0579d7	0.1303476
89	0xbece45bc	-0.40287578
90	0xbda469b5	-0.080279745
91	0xbee304eb	-0.4433969
92	0x3df7ee32	0.12105979
93	0x3e4172ee	0.18891498
94	0x3ea3c78a	0.31988174
95	0x3e382d4f	0.17986034
96	0x3caf466a	0.02139588
97	0x3d1d8bbe	0.038463347
98	0x3e98a3c9	0.29812458
99	0xbeb9b157	-0.36268112

lstm.weight_hh_l0 f4 [20, 5]
0	0x3e5ece24	0.21758324
1	0xbe97cc89	-0.29648235
2	0xbe987b17	-0.2978141
3	0xbf27bc50	-0.6552172
4	0x3e8041cc	0.250502
5	0xbf318382	-0.6934129
6	0xbaae998c	-0.0013320907
7	0x3df40303	0.11914637
8	0x3d536864	0.051613227
9	0xbf10a774	-0.56505513
10	0xbc0adead	-0.008475942
11	0xbf1c288d	-0.60999376
12	0xbd89a8cf	-0.06721651
13	0xbba90e83	-0.0051592006
14	0xbe55ab35	-0.20866092
15	0x3f96da0c	1.1785293
16	0xbe3cc9d6	-0.1843637
17	0xbefe4a05	-0.49665847
18	0xbf4c22dc	-0.7974069
19	0xbebfb1f6	-0.3744046
20	0xbf1ca353	-0.61186713
21	0xbe7809e2	-0.2422252
22	0xbea23f09	-0.31688717
23	0xbe863d6f	-0.26218745
24	0xbe15d394	-0.14631492
25	0xbf9b99a9	-1.2156268
26	0x3fb61eed	1.4228188
27	0x3f074a22	0.5284749
28	0x3f36c528	0.71394587
29	0x3f7dab78	0.99089766
30	0xbf4ef9b0	-0.8084974
31	0x3db0332e	0.08603512
32	0x3f4a3184	0.78981805
33	0x3de386cd	0.111096956
34	0x3f0fb19c	0.56130385
35	0xbec8416f	-0.39112422
36	0x3f801b9a	1.0008423
37	0x3f2cd7b6	0.6751665
38	0x3dc74592	0.09730066
39	0x3e991401	0.29898074
40	0xbe229c1b	-0.15879862
41	0x3f152a62	0.58267796
42	0x3f4af712	0.7928325
43	0x3f1b022f	0.60550207
44	0x3f792b52	0.97331727
45	0xbf0b9858	-0.54529333
46	0x3ef9adda	0.4876545
47	0x3f1735f8	0.59066725
48	0x3f804a96	1.0022762
49	0x3ee9eb96	0.4568755
50	0x3f00088b	0.50013036
51	0xbe84716c	-0.25867784
52	0xbd3c8bdc	-0.046031818
53	0x3da7b615	0.08189026
54	0xbcf47944	-0.02984298
55	0xbf250eb1	-0.6447554
56	0x3d45e26d	0.04831164
57	0x3f11052d	0.5664852
58	0x3e9ffa3b	0.31245598
59	0xbf05c8d2	-0.5225955
60	0xbf65672c	-0.8961055
61	0x3eb7d71b	0.359063
62	0x3dc6b4ed	0.097024776
63	0x3e6f1968	0.23349535
64	0x3dfdfe50	0.12402022
65	0xbeedc6ae	-0.46440643
66	0x3c84cc75	0.016210774
67	0x3ef8cb69	0.4859269
68	0x3d43ab0e	0.047770552
69	0xbf217631	-0.6307097
70	0xbef462fe	-0.47731775
71	0x3e559b2e	0.20859978
72	0x3f3356f5	0.7005456
73	0x3f16ce70	0.5890875
74	0xbdc14472	-0.09436883
75	0xbf2c7ae8	-0.6737504
76	0x3f193ce4	0.59858537
77	0x3effd1de	0.49964803
78	0x3f0f652e	0.5601376
79	0x3f400409	0.7500616
80	0xbf783d1b	-0.9696824
81	0x3f6af0e9	0.9177385
82	0x3f3c37ee	0.7352284
83	0x3ee1a23b	0.44069085
84	0xbc46873e	-0.012117205
85	0xbeb0148f	-0.34390685
86	0x3f17580f	0.5911874
87	0x3f42dde5	0.76119834
88	0x3e91fc62	0.28512865
89	0x3f48cea5	0.78440315
90	0xbf57b6d4	-0.8426335
91	0x3e966ec6	0.29381388
92	0x3ef6e3ea	0.4822076
93	0x3f15619c	0.58352065
94	0x3f84d607	1.0377816
95	0xbf50ca65	-0.8155883
96	0x3f285936	0.65761125
97	0x3e4c50f2	0.19952753
98	0x3ecd6de2	0.40122896
99	0x3f0ce43c	0.5503576

lstm.bias_ih_l0 f4 [20]
0	0xbe01d606	-0.126793
1	0xbe9f426e	-0.3110537
2	0x3f0337e7	0.51257175
3	0xbedd74a6	-0.43253058
4	0xbe79c598	-0.24391782
5	0x3f79b0f2	0.9753562
6	0x3e975733	0.29558715
7	0x3e93307d	0.2874793
8	0x3f2226ac	0.6334026
9	0x3e22f980	0.15915489
10	0x3ea575ca	0.32316428
11	0x3e705aed	0.23472185
12	0xbe9fd377	-0.31216022
13	0xbd8b0342	-0.06787731
14	0x3d3522a9	0.044222508
15	0x3ee0901b	0.43859944
16	0x3e5b7cae	0.2143428
17	0x3f7fea84	0.9996722
18	0xbe8039f6	-0.2504422
19	0x3e98fd57	0.29880783

lstm.bias_hh_l0 f4 [20]
0	0xbe1be3d4	-0.15223628
1	0xbef1adf3	-0.47203025
2	0x3e689476	0.22712883
3	0xbec3d927	-0.38251612
4	0xbdc96f18	-0.098356426
5	0x3f9403b8	1.1563635
6	0x3ee1ceeb	0.44103178
7	0x3e4e9650	0.20174527
8	0x3f663211	0.89920145
9	0xbe8ec8db	-0.27887616
10	0x3c90d20b	0.017678281
11	0xbdebe1ff	-0.11517715
12	0xbcae6d9d	-0.021292502
13	0xbeafd88b	-0.34344897
14	0x3d6f99e1	0.05849636
15	0x3e02849d	0.127459
16	0x3dcb39de	0.09923147
17	0x3f1efdca	0.62106
18	0xbe5b0bba	-0.21391192
19	0x3f0ffcf1	0.5624533

lstm.weight_ih_l0_reverse f4 [20, 5]
0	0x3f102f41	0.56322104
1	0xbf8ba9ee	-1.0911233
2	0xbf2b2a87	-0.66861767
3	0x3faf4a08	1.3694468
4	0x3dada745	0.0847917
5	0x3d59addb	0.053144317
6	0x3f7ea945	0.99477035
7	0xbeb8b936	-0.36078805
8	0x3f19c075	0.6005929
9	0xbefcf3ab	-0.49404654
10	0x3e747e6d	0.23876353
11	0x3bc319c9	0.0059540016
12	0x3ea20b1c	0.316491
13	0x3f18377e	0.59459674
14	0xbef67ac3	-0.48140535
15	0x3dad16d2	0.08451618
16	0xbf4b84f8	-0.7949977
17	0xbe75bc15	-0.23997529
18	0xbf4952b0	-0.78641796
19	0x3f08c87f	0.5343093
20	0x3ec334e7	0.381263
21	0x3fe79552	1.8092444
22	0xbe1077d8	-0.14108217
23	0x3eb8f635	0.3612534
24	0xbf2ef099	-0.6833587
25	0xbe99424f	-0.29933402
26	0x3dd33fc7	0.10314899
27	0x3e0ccb6b	0.13749473
28	0x3e96ad37	0.29429027
29	0xbea2df46	-0.3181097
30	0x3e1d6db3	0.15373878
31	0xbed75b7e	-0.4206199
32	0xbe9e637d	-0.3093528
33	0xbd39b4c3	-0.045338403
34	0xbe8e7e31	-0.2783065
35	0xbe449aad	-0.19199629
36	0x3e6fa6c2	0.23403457
37	0xbd1be024	-0.038055554
38	0x3e15ae48	0.14617264
39	0x3e3568ba	0.17715731
40	0x3dc94707	0.098280005
41	0x3d922d5a	0.071375564
42	0xbe215f69	-0.15759052
43	0x3e653cb9	0.22386445
44	0x3eaf6a3f	0.34260747
45	0x3ea0abc7	0.31381056
46	0xbe9a798f	-0.30170867
47	0xbed7783f	-0.42083928
48	0x3ee07556	0.4383952
49	0x3def9681	0.11698628
50	0x3e12ee34	0.1434868
51	0xbedd6d33	-0.43247375
52	0x3ebaf208	0.3651278
53	0x3f91dfd7	1.1396435
54	0xbe60bf2b	-0.21947925
55	0xbe2b21e9	-0.16712154
56	0xbea94de5	-0.3306724
57	0xbe565e39	-0.2093438
58	0xbed5e071	-0.41772798
59	0x3f029420	0.5100727
60	0x3dd563bd	0.10419414
61	0xbc88740b	-0.016656896
62	0x3e71a171	0.23596741
63	0x3ea5e78a	0.32403213
64	0xbdebfdb5	-0.11523
65	0xbe8d2005	-0.2756349
66	0xbe19c5c7	-0.15016852
67	0x3c728ea9	0.014804521
68	0xbee525a5	-0.44755283
69	0x3e8c9c2d	0.27462903
70	0xbe48f829	-0.19625916
71	0xbf3fb263	-0.7488157
72	0xbf1c13e8	-0.60967875
73	0xbe9f13ed	-0.3106989
74	0x3f439040	0.76391983
75	0x3f504a07	0.81362957
76	0x3f3191b4	0.6936295
77	0xbd549f10	-0.051909506
78	0x3f8c33f8	1.095336
79	0xbf679700	-0.9046478
80	0x3c95efb4	0.018302776
81	0x3f832dc2	1.0248339
82	0xbdb8c542	-0.09021999
83	0x3f35b737	0.7098269
84	0xbe24fe0b	-0.16112535
85	0x3e9a3028	0.30114865
86	0x3ea25f0a	0.31713134
87	0x3f05f48f	0.5232629
88	0x3f5eb3d1	0.8699313
89	0x3cc962dd	0.024583274
90	0x3d7d1100	0.06178379
91	0xbf675565	-0.90364677
92	0xbe92bdda	-0.2866047
93	0xbf75ff03	-0.9609224
94	0x3f1cc8c0	0.6124382
95	0x3ce109c7	0.027470483
96	0x3f90bb38	1.1307135
97	0xbe078b9c	-0.1323685
98	0x3e544e61	0.20733024
99	0x3ec6c96b	0.38825545

lstm.weight_hh_l0_reverse f4 [20, 5]
0	0x3df2f12f	0.11862408
1	0xbed27934	-0.41108096
2	0xbe61c2b3	-0.22046928
3	0xbe5e8a9c	-0.21732563
4	0x3eb5a484	0.35477078
5	0x3dd358af	0.103196494
6	0xbecc00c2	-0.39844328
7	0x3db298e9	0.087205715
8	0x3eb7026d	0.35744038
9	0x3ed30163	0.41211995
10	0x3ecff09a	0.40613252
11	0xbd33fd41	-0.043942694
12	0xbe3e8e2c	-0.18608922
13	0x3e3f33a7	0.18672048
14	0xbd9bc48e	-0.07605849
15	0x3e927785	0.2860681
16	0x3de286ff	0.11060905
17	0x3d8fcacb	0.070211016
18	0xbee27dc2	-0.4423657
19	0x3e73e608	0.23818219
20	0xbe4b03fe	-0.19825742
21	0xbe5e80fb	-0.2172889
22	0x3e986530	0.297647
23	0xbba5a458	-0.0050549917
24	0xbe9dc8f2	-0.30817372
25	0xbec62472	-0.3869968
26	0x3ed20d06	0.4102556
27	0xbdb3f2ff	-0.08786582
28	0x3e140a75	0.14457114
29	0xbcf79942	-0.030224446
30	0x3d6ad5c0	0.057332754
31	0xbe2f39b0	-0.1711185
32	0x3cf63783	0.030055767
33	0xbd15a279	-0.0365319
34	0xbd907a8c	-0.07054624
35	0x3d76243a	0.060093142
36	0x3e1e541d	0.15461774
37	0xbe8f95bb	-0.28043923
38	0xbe64524d	-0.2229702
39	0xbe8219ce	-0.25410312
40	0xbe4dce31	-0.20098187
41	0x3d0f2e85	0.034956474
42	0x3e63a87c	0.2223224
43	0xbe8a938a	-0.27065688
44	0xbe934103	-0.28760538
45	0xbe50af4c	-0.2037937
46	0xbea8e488	-0.32986856
47	0x3b55da19	0.0032631217
48	0xbc5db289	-0.013531336
49	0xbd570008	-0.052490264
50	0x3dc86d0a	0.097864226
51	0x3dc408be	0.0957198
52	0xbe9d9efc	-0.30785358
53	0x3e90f247	0.28309843
54	0xbe58c26a	-0.21167913
55	0x3e35cfac	0.17755002
56	0x3ddd8776	0.10816853
57	0x3d0aaab2	0.033854194
58	0xbebecb03	-0.3726426
59	0x3e925894	0.28583205
60	0xbedbdfca	-0.42944175
61	0xbe93f2f9	-0.2889631
62	0xbe4d8411	-0.2006991
63	0x3ee4f8c3	0.4472104
64	0xbe905881	-0.28192523
65	0xbea83546	-0.32853144
66	0x3e9caf70	0.30602598
67	0xbd486756	-0.048926674
68	0x3d65aa72	0.056070752
69	0x3dec34de	0.11533521
70	0x3ed5b9a8	0.41743207
71	0x3edb99cd	0.42890778
72	0xbcaaf436	-0.020868402
73	0xbeb472cd	-0.35243836
74	0xbed045bf	-0.40678212
75	0x3e44ea61	0.19230033
76	0xbd1e6633	-0.038671684
77	0x3e98d682	0.29851156
78	0xbdce58b4	-0.100755125
79	0x3eaacf3f	0.3336124
80	0x3e3d5428	0.18489134
81	0xbe679f85	-0.22619446
82	0x3eafa048	0.34301972
83	0x3ec2d302	0.3805161
84	0x3e74c6db	0.23903982
85	0xbe2731fd	-0.16327663
86	0x3e3566a2	0.17714933
87	0x3ee0c2b6	0.43898553
88	0x3d01107a	0.031509854
89	0x3d6ebe1c	0.05828677
90	0x3d9d58c8	0.07682949
91	0xbe38845d	-0.18019243
92	0x3ed330ec	0.41248262
93	0x3def55db	0.116862975
94	0x3e8eb17d	0.27869788
95	0x3d6dfd07	0.058102634
96	0x3ea34393	0.31887493
97	0xbe470325	-0.19434793
98	0x3e873d8f	0.26414153
99	0xbe795aa4	-0.24350983

lstm.bias_ih_l0_reverse f4 [20]
0	0x3e9867c0	0.29766655
1	0x3bded6da	0.0068005146
2	0xbf5a18b6	-0.85193956
3	0x3f046a87	0.5172505
4	0x3f1e9243	0.6194193
5	0x3ea02014	0.31274474
6	0xbed2410b	-0.4106525
7	0xbebd4600	-0.36967468
8	0xbdee697a	-0.11641212
9	0xbead595c	-0.33857238
10	0xbf448a1a	-0.76773226
11	0x3ec5694b	0.38556895
12	0xbe07402b	-0.13208072
13	0xbf0ddca6	-0.5541481
14	0x3f067e32	0.5253631
15	0x3eddf474	0.43350565
16	0xbe239626	-0.15975246
17	0xbeafc660	-0.34331036
18	0xbd849fcb	-0.064757906
19	0x3efda3d8	0.49539065

lstm.bias_hh_l0_reverse f4 [20]
0	0x3da4ee74	0.08053294
1	0x3e637593	0.2221282
2	0xbd4c15eb	-0.04982559
3	0x3ee87427	0.45401117
4	0x3e2803f3	0.16407757
5	0xbe16d38a	-0.14729133
6	0xbe42d476	-0.1902636
7	0x3e26d1f7	0.16291033
8	0x3ea4f064	0.32214653
9	0x3c7a96c7	0.015294737
10	0x3c6e6ae4	0.014551852
11	0x3f2d2735	0.6763795
12	0xbee2c32b	-0.44289526
13	0xbf402e39	-0.7507053
14	0x3eaa2e58	0.33238482
15	0x3eca5552	0.3951822
16	0x3ecc34e8	0.39884114
17	0xbf11a67e	-0.5689467
18	0x3ebc8187	0.36817572
19	0x3e409f8a	0.1881086

fc1.weight f4 [1, 10]
0	0x3f763dfa	0.9618832
1	0xbf0768d4	-0.5289433
2	0xbf4c0f9e	-0.7971133
3	0xbfe22fd9	-1.7670852
4	0xbf22217a	-0.6333233
5	0xbeaf10b6	-0.34192437
6	0x3f184bd1	0.59490687
7	0xbe2d3724	-0.16915566
8	0xbf3ca8b3	-0.73694915
9	0x3f1b9f69	0.60790116
