models/Custom Features/ann.pt (torch, 5520 bytes, 8 tensors)

model.0.weight f4 [10, 15]
000000 e6 a0 af be 84 a1 27 3e 40 47 be be ca f1 d4 3e
       -0.34302443 0.16370207 -0.37163734 0.4159072
000010 2e 8e 32 be 67 cf 02 bc 2d 13 df 3d 7d 7b 71 be
       -0.1743705 -0.007984019 0.10892329 -0.23582263
000020 bd b5 75 3d 72 73 02 c0 1a db 2c 3f 10 61 df be
       0.059987772 -2.0382962 0.6752182 -0.4362874
000030 e0 53 30 3d b4 c2 06 be e3 c0 6d be 34 9b 14 3f
       0.04304874 -0.13160211 -0.23218112 0.5804932
000040 c4 d8 13 bd 34 92 44 3f 38 2e 01 3f 6a 60 e9 3e
       -0.036095396 0.7678559 0.5046115 0.4558137
000050 d0 d0 59 bc 3e e5 d0 be ea 05 08 3e 92 6e b3 3c
       -0.013294414 -0.40799898 0.13283506 0.02190331
000060 25 2e db 3e 4c 05 50 bf 94 08 de 3e bd 37 04 3e
       0.42808643 -0.8125808 0.4336592 0.12911887
000070 77 e8 4d 3e ab d8 34 bf d7 7e a6 bd cc 45 3d be
       0.2010821 -0.7064311 -0.081296615 -0.18483657
000080 8b 38 c1 bd 00 38 81 be 17 01 98 be b9 a7 1f bc
       -0.09434613 -0.25238037 -0.2968833 -0.009744578
000090 ea 04 61 3d d0 dd 8c 3d a9 89 0d be 04 a3 36 3f
       0.054936327 0.06878245 -0.13822044 0.7134249
0000a0 8d 0e c2 bf 62 4f cc bd ed 62 4e 3d 16 a7 38 be
       -1.516069 -0.099760786 0.05038731 -0.18032488
0000b0 e3 8e 30 3e e3 41 16 be ac 06 eb 3c cb 57 83 3d
       0.17242007 -0.14673571 0.028689705 0.064132296
0000c0 01 ea d5 bd a1 90 2f be 24 80 ba 3d e1 d1 8f bd
       -0.10445023 -0.17145015 0.09106472 -0.07022453
0000d0 28 0a d7 bc 91 30 94 bd 30 00 6c 3f bf 99 d2 bf
       -0.02624996 -0.07235826 0.92187786 -1.645317
0000e0 db 06 62 3e 4b c6 16 bc 80 06 1e be b5 b7 18 bd
       0.22072928 -0.00920255 -0.15432167 -0.03728457
0000f0 17 3c b0 3d b7 71 6c be 8c b1 c4 bc 11 fe 84 3d
       0.08605211 -0.23090254 -0.024010442 0.06493772
000100 30 92 7b 3d e2 11 51 be ad 91 a1 be 5e 8b a4 bd
       0.061418712 -0.20416978 -0.31556454 -0.08034395
000110 59 a3 0f be d2 07 03 c0 82 8b 95 3e b7 e9 17 bc
       -0.14027156 -2.0473523 0.29208 -0.009272031
000120 5d 29 be 3b 44 08 14 3e 0e 01 13 bd 87 34 62 3e
       0.0058032707 0.14456278 -0.035889678 0.2209035
000130 52 af 13 3e 68 b3 b7 3e 3a 84 b2 be 34 e1 cd bd
       0.14422348 0.35879064 -0.34866506 -0.1005272
000140 53 af c3 3d 21 ab 28 be c8 22 be 3d 79 0e 8c bd
       0.09554925 -0.1647153 0.09283978 -0.06838698
000150 7d a2 10 3f 1e 51 d5 bf 07 3d 21 3e 96 65 59 be
       0.5649794 -1.666538 0.15745936 -0.21230158
000160 43 5c 7d be 18 b4 fd 3d 69 bf 93 3c b8 0b a4 3e
       -0.24742226 0.12387866 0.018035607 0.3204019
000170 2c 50 5f 3f 00 f7 56 3e 81 3f bc 3e e8 6c 7b be
       0.8723171 0.2099266 0.367672 -0.24553263
000180 4c ce 6f bc b9 12 a4 be 60 32 c7 bc ac 7b b1 3e
       -0.014636587 -0.32045534 -0.024316013 0.34664667
000190 28 79 13 bf 13 7b e8 3d b0 47 de 3e 2c be 80 be
       -0.57606745 0.113515995 0.43414068 -0.2514509
0001a0 81 75 cf 3c 98 11 2b bd 19 5b e4 3b 31 57 85 be
       0.025324585 -0.041764826 0.0069688675 -0.26043084
0001b0 f5 ba 24 3e fe da 89 3c e8 59 9e 3c 7b a4 d8 3d
       0.16086943 0.016828056 0.01932998 0.10578247
0001c0 8c d7 65 bd b4 d8 29 3e 07 f9 0b c0 49 3a fd 3e
       -0.056113765 0.16586572 -2.1870744 0.4945853
0001d0 7c 2e fc bd 56 21 28 3c ac 42 02 bf 39 42 1e bd
       -0.12313554 0.010261854 -0.50882983 -0.038637374
0001e0 f2 b8 b6 3e d9 28 2c 3f e0 d8 95 3f ea 36 86 3e
       0.35687977 0.6724983 1.170681 0.2621377
0001f0 da c9 71 3d 3c 6e 09 be 07 03 80 be 65 39 f0 3d
       0.05903039 -0.13420957 -0.2500231 0.11729697
000200 f3 28 b6 3b 5b 26 49 3d c5 ae 79 bf 40 84 bc 3e
       0.0055590807 0.049108844 -0.975323 0.3681965
000210 74 6f 1d bf cb d4 bc 3e 3c bb 8d 3d 89 89 0f be
       -0.6149819 0.36881098 0.06920478 -0.14017309
000220 fd f1 ad bd b7 88 94 be 7c 91 63 3e f5 83 98 3d
       -0.08493421 -0.29010555 0.22223467 0.07447044
000230 22 14 21 bd 5c 63 39 bd 10 30 8e bd ae 22 d3 3c
       -0.03932584 -0.045260772 -0.06942761 0.025773373
000240 a6 85 14 c0 4b 86 bf 3e d0 d9 09 bd 3f d1 3b 3e
       -2.3206573 0.37407145 -0.033654988 0.1834154
000250 4d 47 94 be c0 19 08 3d
       -0.28960648 0.033227682

model.0.bias f4 [10]
000000 39 dd 20 be 74 94 3f 3e 1e d8 9c 3e 2c e7 e7 3e
       -0.1570939 0.18708974 0.30633634 0.45293558
000010 e4 1e 19 bf 1c 52 d5 3e 3f 0d ee 3e a6 4c 14 bf
       -0.5981276 0.41664207 0.4649448 -0.57929456
000020 f1 87 1c 3d e4 f4 df be
       0.03821558 -0.43741524

model.3.weight f4 [20, 10]
000000 90 3c 92 bf c8 8d 34 3e f3 cb c7 3d 26 2b 9d 3c
       -1.1424732 0.1763221 0.09755697 0.019185614
000010 ac d0 9c bf eb 44 02 be 58 81 19 3d 1e 5f ce bf
       -1.2251182 -0.12721603 0.037476867 -1.6122777
000020 b1 ab a1 3d e5 a6 94 bf 27 ab 8b ba 26 cd 82 be
       0.07894076 -1.1613432 -0.0010655866 -0.2554714
000030 2a ab cf 3e fe 1c da 3e 79 00 53 be e4 83 cf 3e
       0.40560275 0.42600244 -0.20605649 0.40530312
000040 87 07 15 bd b9 ab 71 bf 0e 0e 86 be 45 b1 a1 be
       -0.03638413 -0.9440265 -0.26182598 -0.31580558
000050 d0 c1 c9 be bf 91 7c 3e 4c 91 45 3d 3f 2d 42 3e
       -0.3940568 0.24664973 0.04823427 0.18962573
000060 e1 5b 49 bf 8a ee 40 3d f9 1a 0b 3d 7d ce 2e bf
       -0.7865582 0.04710249 0.03396127 -0.68283826
000070 82 7d 9c 3e 16 cb bc be 6f fb 68 be 03 ea 53 be
       0.30564505 -0.36873692 -0.22752164 -0.20694737
000080 00 fd 44 3c 5f 10 fb 3d d4 13 81 bf 1a b5 79 3e
       0.0120232105 0.12258982 -1.0084176 0.24385491
000090 f4 67 05 3d 50 9e 12 bf 5b 1d ad 3e bf 9b 08 bf
       0.03256984 -0.57272816 0.3381146 -0.5336265
0000a0 08 5f 13 be 51 4d fe be 66 72 49 3d d0 47 42 3d
       -0.1439172 -0.49668363 0.049181364 0.047431767
0000b0 7c 95 b2 bf cc 1c f0 3d 30 52 be 3e 87 ca 81 bf
       -1.3951869 0.117242426 0.3717208 -1.0139931
0000c0 3c a1 83 be be 9b 1d bf ea 9d 9c bf 38 ea 10 3e
       -0.2570895 -0.6156577 -1.2235692 0.14151847
0000d0 09 cb 99 3c de 70 0f 3e a9 e7 ba bf 01 77 18 3e
       0.018773573 0.14007899 -1.4601947 0.14889146
0000e0 0d 18 ad 3d c8 91 ce bf a0 b4 2c 3c 1c a4 be bf
       0.08451853 -1.6138239 0.010541111 -1.4893832
0000f0 aa 06 80 be ea 3c 45 3e 10 cd e0 bd cc b4 9d 3e
       -0.25005084 0.19261518 -0.109766126 0.30802
000100 36 dc 77 bf 01 c9 8c 3e a1 f3 67 bd ae 98 1a bf
       -0.9682039 0.27497104 -0.056628827 -0.6038922
000110 51 3a 37 3e f7 55 ec be 24 c6 49 bf 1d af 2d 3e
       0.1789334 -0.46159336 -0.78817964 0.16961332
000120 5a fc a6 bd 01 a7 0a ba 81 de b9 bf a3 0d 04 3e
       -0.08153601 -0.0005289168 -1.4521028 0.12895827
000130 99 15 82 3c 5f 8f b8 bf 45 b3 6e 3c 98 d4 98 bf
       0.01587944 -1.4418753 0.014569108 -1.1939878
000140 9a ef 04 bf e4 62 b7 3d 9f 90 fb 3c 2d e6 2c 3e
       -0.519281 0.08954409 0.03070861 0.1688468
000150 d3 c6 70 bf 18 a1 41 3e 89 b3 0c be 81 5b b6 bf
       -0.9405338 0.18909109 -0.13740362 -1.4246675
000160 fc e5 7a 3d ec e7 87 bf e7 b2 12 be 39 6b 4c bf
       0.061254486 -1.0617652 -0.14326058 -0.7985111
000170 92 2c 72 3d e8 86 de 3c d9 87 59 bf 23 90 83 be
       0.059124537 0.027163938 -0.8497291 -0.25695905
000180 ff f7 75 3e ab 15 94 be 63 b5 39 3f c5 e3 8a be
       0.24020384 -0.2892278 0.725424 -0.271269
000190 94 72 21 3d c3 bc 16 bf 7e 33 69 bf 72 32 8c bf
       0.03941591 -0.5888178 -0.91094196 -1.0952895
0001a0 74 da 23 3f df 2e 8d bf a4 fd 1a bf e3 d4 12 3f
       0.6400521 -1.1029929 -0.60543275 0.5735609
0001b0 04 c6 a9 bf 5b f2 3d 3e e2 67 8f be 02 86 b2 3d
       -1.3263555 0.18549483 -0.28008944 0.08716966
0001c0 20 e5 9b bc 25 fb af 3d 6b 1c 6f bf 87 76 60 3e
       -0.019030154 0.08592824 -0.9340274 0.21920215
0001d0 b7 ed 2c bd 28 6e 36 bf 30 2a ab bc 86 3b bf be
       -0.04221889 -0.71261835 -0.02089414 -0.373501
0001e0 38 74 c8 3d 53 7d 45 be bd 5b 87 bf 01 e4 30 bf
       0.09787792 -0.19286089 -1.0574871 -0.69097906
0001f0 d2 58 90 3f f5 ec 4b bf 22 cb a8 be 66 2f 07 3f
       1.1277106 -0.7965844 -0.32967478 0.528067
000200 ea d0 15 bf 59 c8 0d 3e 81 aa 96 be 82 44 e3 3e
       -0.585219 0.13845958 -0.2942696 0.44388205
000210 0a 55 42 3e a7 32 ac be 3e e2 88 bf 87 26 cf 3e
       0.18977752 -0.33632395 -1.0694044 0.40459082
000220 51 eb 71 3e 46 97 ef be 6c b9 4d bf 52 18 47 bf
       0.23624922 -0.467951 -0.80361056 -0.77771485
000230 c8 fc fb bd 23 cf c3 be 47 08 10 be e3 8f 40 be
       -0.123040736 -0.3824397 -0.14065658 -0.18804888
000240 78 6f 97 be 41 c3 3a bd 39 59 80 bd cc 13 3f be
       -0.2957723 -0.045596365 -0.06267018 -0.18659896
000250 20 4e ca be 9d ed 8a 3f 43 99 36 bf c2 d4 9e 3d
       -0.3951273 1.0853764 -0.7132761 0.07755424
000260 c9 eb ad 3d fb 6a 51 3c 0c 81 c7 bf c2 40 17 3d
       0.08492238 0.012781854 -1.5586257 0.036926992
000270 72 13 2a 3e 78 83 9e bf 82 33 87 3d 0e 57 8f bf
       0.1660898 -1.2383871 0.06601621 -1.1198442
000280 37 ec 49 3f 71 bd ad be e2 8e cc be 5d 96 7c be
       0.7887606 -0.33933595 -0.3995276 -0.24666734
000290 9d cb d4 3e a7 85 93 be 73 6e 07 bf f5 26 97 be
       0.41561595 -0.28812906 -0.5290291 -0.2952191
0002a0 1a f8 45 bf ce 6f 10 bd a5 6c 7b 3c b3 2d 63 bf
       -0.773317 -0.035262875 0.015345727 -0.88741606
0002b0 f4 04 50 bf aa 78 4f bf e7 21 81 3f d1 a8 31 bf
       -0.8125756 -0.81043494 1.0088471 -0.6939822
0002c0 7f 9f 4d bf 5c 47 2d 3f db e8 41 bf 2c c0 40 3d
       -0.80321497 0.6768701 -0.75745934 0.04705827
0002d0 ec 14 3b bd 87 b8 c6 3e e0 12 1f 3e 9a 5d 1c 3d
       -0.04567425 0.38812658 0.15534544 0.038175203
0002e0 23 13 6b be 08 f6 71 3d 54 fb 28 3e d8 79 10 be
       -0.22956519 0.059072524 0.16502124 -0.1410898
0002f0 40 fe 9c 3e 92 c2 d8 bd 58 e2 67 3e 60 9c 19 bf
       0.30662727 -0.10583986 0.22644937 -0.60004234
000300 df e8 5f bf 78 4f 28 bf 2c 7e 80 3f e5 a1 64 bf
       -0.8746471 -0.6574626 1.0038505 -0.8930953
000310 3e 0d e0 bd 3e 6a f1 3e 55 99 30 bf 71 18 ba 3e
       -0.10940026 0.4715137 -0.68983966 0.36346772

model.3.bias f4 [20]
000000 13 a2 63 3e ae 11 a6 bf 53 52 42 3d 77 d2 c1 3d
       0.22229795 -1.2974145 0.04744179 0.09463971
000010 ec 9c 33 3e 2f 8c 83 3e b3 b4 59 3e 78 b5 6a 3e
       0.1754033 0.2569289 0.21260338 0.22920787
000020 3a 50 80 3e f4 8e bf 3d ea b6 5e 3e 3e b8 45 3e
       0.25061208 0.09353438 0.21749464 0.19308564
000030 4f d7 9c 3e 41 f8 4d bc fc 72 da be 2b e0 cf 3d
       0.30633017 -0.012571395 -0.4266585 0.101501785
000040 72 54 08 bf bd cc 73 be d0 d2 98 3e 4c ee 74 3e
       -0.53253853 -0.2380857 0.29848337 0.23919028

model.6.weight f4 [10, 20]
000000 fe 7a c7 3d e5 9e a3 bf 7c 52 0e 3e 99 58 91 3d
       0.09740256 -1.2782866 0.13898653 0.07096977
000010 4d e6 c4 3d b2 73 3d 3e ae 13 f8 3d 44 61 d1 bb
       0.09614239 0.18501166 0.121131286 -0.006389769
000020 ab 63 43 3d 95 d2 ca 3d 60 10 fc bf d7 4e f0 3c
       0.047702473 0.099034466 -1.9692497 0.029334469
000030 ce 3f 29 bf 22 2d e3 3d 97 c9 d5 bf a2 f7 1a 3e
       -0.66112983 0.11092593 -1.6702145 0.15133527
000040 16 a3 a2 bf e9 7c f8 bf 50 ce 88 bd 26 dd 4d bf
       -1.270602 -1.941312 -0.06679976 -0.8041557
000050 9d f9 73 3e 96 02 d7 be af 14 ae 3c 82 05 90 3d
       0.23825689 -0.4199416 0.021250097 0.070323005
000060 b6 3d 8b 3b 4d 8f 95 3e 47 45 6d bd fa 96 b5 3d
       0.0042493 0.29210892 -0.057927396 0.08866687
000070 95 4c 78 3e 53 60 85 bc bb 92 1a c0 bd ca 02 3e
       0.24247964 -0.016281283 -2.4152057 0.12772651
000080 05 3b ec bf 46 c2 6c 3e 65 31 a4 bf 5c e9 29 3e
       -1.8455511 0.23120984 -1.2827574 0.16592926
000090 5f b1 6f bf 11 16 ad bf db 7e db bc 50 b0 cc bf
       -0.9363002 -1.3522359 -0.026793888 -1.5991306
0000a0 9d e2 49 3e 5c 5a 94 be 17 28 95 3d 80 7d 58 3d
       0.19715352 -0.2897519 0.07283037 0.05285406
0000b0 87 e4 3b 3d 9c 95 2c 3e 51 c3 1a 3e f6 5a 9a 3e
       0.045872238 0.16853946 0.1511357 0.30147523
0000c0 ca 4e 34 3e 53 2a d4 3d 6a 6e b7 be e1 37 df 3d
       0.1760818 0.10359635 -0.35826427 0.1089933
0000d0 34 63 89 be 20 58 91 3e 57 8d 93 bf c8 b0 81 3c
       -0.26833498 0.28387547 -1.1527508 0.015831366
0000e0 1b c2 38 bf 60 96 b1 bf 29 c4 0b 3d f4 53 59 be
       -0.7217118 -1.3874016 0.03412262 -0.21223432
0000f0 ad f9 92 3e 53 83 eb be 32 0c 19 3d 1d dd df 3d
       0.28706113 -0.4599863 0.037365146 0.10930846
000100 44 2b 0a 3e 28 a4 e7 3d 28 5b 80 3e 9a f5 39 3e
       0.13493067 0.11310607 0.25069547 0.18160096
000110 4a fe 8b 3d 2b 0c 51 3e 4a 2b 04 be 74 54 3a 3e
       0.06835611 0.20414798 -0.12907138 0.18196279
000120 f7 f0 21 be 84 c2 a2 3e 24 35 80 bf fe 1e 8a bc
       -0.15814577 0.3178903 -1.0016217 -0.016860481
000130 a2 04 42 bf 9c a4 8a bf ba c3 26 3d 1d 52 1a be
       -0.7578832 -1.0831485 0.040714003 -0.15070386
000140 09 b7 5b 3e 0c 75 bb be 5d 9c 9f bd df bc 05 be
       0.21456541 -0.36612737 -0.07793496 -0.1306033
000150 fe 69 98 3e 91 72 77 3e 16 6a 20 3e c9 97 b8 3e
       0.29768366 0.24164797 0.15665469 0.36053303
000160 c1 58 97 3e c8 6e 88 3d 37 0a 83 be 22 8d c1 3d
       0.295599 0.06661755 -0.2559373 0.09450747
000170 5e 57 81 be fb dd c4 3e 74 62 a8 bf 50 17 c4 3d
       -0.25261968 0.38450608 -1.3155046 0.09574759
000180 51 6f 6b bf 6b 73 b6 bf f4 90 d6 3d a3 fc 5d be
       -0.9196673 -1.4253973 0.10476866 -0.21678405
000190 c2 bd 8e be 7a c6 c5 bc 6c 92 0b be cc 40 ee be
       -0.2787915 -0.024142493 -0.13630074 -0.4653381
0001a0 2d a1 af be bf 48 b4 bd d0 9a 6f bf ca f0 ad be
       -0.34302655 -0.08802938 -0.935956 -0.3397277
0001b0 04 ed 8b bd af 0e 62 bf bb 7f 74 3e ba 41 12 bf
       -0.068323165 -0.88303655 0.2387685 -0.5713154
0001c0 9b 95 6d 3e cd 09 41 3c ad 8c 95 3f 8f 27 e9 3c
       0.23201601 0.011782122 1.1683556 0.028461246
0001d0 c0 e0 67 3f 68 32 23 3f d7 2d a6 bf b4 26 7a 3d
       0.90577316 0.6374879 -1.2982739 0.061072066
0001e0 7e 82 5f 3e 62 d0 d1 be 53 06 43 3d c0 ed 37 3e
       0.21827123 -0.40979296 0.047613453 0.17961788
0001f0 85 a2 28 3e 6b 4f 99 3e 17 2b cb 3d ae af ab 3d
       0.16468246 0.29943404 0.09920328 0.083831176
000200 df 8a e7 3d 7d 2a 9b 3e bb 5f b0 be ea ed 8e bd
       0.113057844 0.30305853 -0.34448037 -0.06978972
000210 e9 af 44 be 83 04 b5 3e e0 13 8b bf 71 06 35 3e
       -0.1920773 0.35355005 -1.086544 0.17678238
000220 0c 59 7f bf ed b6 c6 bf 94 f3 47 3e d0 9b 4d be
       -0.9974525 -1.5524575 0.19526511 -0.20078969
000230 0a 35 6d 3e 5c 4a f8 bd 35 22 ac 3d 5f b3 d4 3d
       0.23164764 -0.12123558 0.08404962 0.10385775
000240 90 0b 16 3e fd 69 3c 3e 79 b3 12 3e 37 b1 bb 3d
       0.14652848 0.18399806 0.14326276 0.091646604
000250 24 4f 90 3e 51 84 38 3d de b2 0f c0 d5 11 31 3d
       0.2818538 0.04504806 -2.2452922 0.043229897
000260 f5 fc bc bf b9 8a be 3e 32 5f f0 bf 2b 6c 10 3e
       -1.4764696 0.37215212 -1.8779051 0.14103763
000270 36 a4 a6 bf cf cb cd bf fb cb 0e bd 61 3c b8 bf
       -1.3018863 -1.6077822 -0.0348625 -1.4393426
000280 a8 6f 25 3e c3 22 a8 3d 2c 3a 8e 3e 16 7f 97 3c
       0.16155875 0.08209755 0.27778757 0.018493216
000290 04 95 83 3e 48 fc e1 3e bd 3e 71 3e df dc 8d 3e
       0.25699627 0.44137788 0.23559089 0.27707574
0002a0 c4 e5 8e 3d 9a 3b 5a 3e a2 a3 79 be a1 9b 4c bd
       0.06977418 0.21311799 -0.24378827 -0.049953107
0002b0 62 3c 65 be 8f 91 b4 3e ac a6 9d bf a0 27 ba 3d
       -0.22386315 0.35267302 -1.2316489 0.09089589
0002c0 25 88 75 bf 32 09 cf bf 0a 56 1e 3d 43 ec 7e be
       -0.95910865 -1.6174681 0.038656272 -0.24894814
0002d0 ad 0e c5 bc 96 ad b6 bc 25 b4 01 3e fb cc 4d 3d
       -0.02405485 -0.02229957 0.12666376 0.050244313
0002e0 cb 7b 47 3e 5f 09 7d 3e 63 16 05 3e 46 e3 22 3e
       0.19480817 0.24710606 0.12996821 0.1590701
0002f0 16 82 27 3e a8 28 9c 3d c5 6e ce be 54 10 83 3e
       0.16358218 0.07624942 -0.40318885 0.25598395
000300 0c 48 75 be 1a 57 66 3e ba e4 98 bf 22 ce b3 3d
       -0.23953265 0.22494164 -1.1944802 0.08779551
000310 82 f5 1a bf 64 ec 83 bf e6 0e 5f 3d c4 3d c9 be
       -0.60530865 -1.0306516 0.054457568 -0.39304936

model.6.bias f4 [10]
000000 13 ba de 3e 3a 4e 03 3f c2 5c 4e 3f 5d bf 39 3f
       0.43501338 0.5129124 0.8061029 0.7255762
000010 f1 50 34 3f a8 ee 79 be e7 a9 44 3f 67 ed d7 3e
       0.70436007 -0.24407446 0.7682175 0.4217331
000020 04 5a 3b 3f a0 3c 21 3f
       0.7318423 0.6298313

model.9.weight f4 [2, 10]
000000 5f 83 8c 3e ef 05 11 3f 87 1f e8 3d eb 33 8b 3e
       0.27443978 0.5664968 0.11334138 0.27188048
000010 6d 3e 9c 3e 92 14 06 bf 5d 29 95 3e fd 37 30 3e
       0.30516377 -0.5237514 0.2913312 0.17208858
000020 f3 b0 ef 3e a7 16 32 3e 7c bb 1b bf 19 e0 b7 bd
       0.4681469 0.17391454 -0.60832953 -0.0897829
000030 fe 79 8c be 65 0c 69 be ec d3 53 be 38 c3 f2 3e
       -0.27436823 -0.22758634 -0.2068631 0.47414565
000040 c5 c9 31 be 78 8d ec be 32 9e 26 3c 65 98 66 be
       -0.17362125 -0.46201682 0.010169553 -0.22519071

model.9.bias f4 [2]
000000 d6 a3 9e bf 70 c8 9c 3f
       -1.2393749 1.2248669
